Assets/AI/MoveToTarget.onnx (onnx, 77266 bytes, 8 tensors)

network_body._body_endoder.seq_layers.0.weight f4 [128, 4]
00000000: 9d5f 0bbe 76bc 093f e15d 253c 7265 873f
00000010: 08fb f2bb d49a fbbe b482 5abe b260 f0be
00000020: 0f5d b1bd 9aa1 f63c ef83 69bf c359 ae3f
00000030: 836f ea3d c684 10bf c6cc 1b3e 8989 1ebf
00000040: 8ae9 123f 5643 623e aaf9 123c bc33 e33e
00000050: af4a 253f 34d7 18bf c892 723e b232 933e
00000060: 3b81 4fbe c7e9 cf3e 3f4b 343f 9ed8 3bbf
00000070: 5006 693f 9cef 0f3f b3f0 95be 738f a6be
00000080: 9d90 823e d48e 133e 5741 683d 8392 b83e
00000090: d0a8 c5be 2818 d63e 8976 093f 98d4 a6be
000000a0: 7c67 29bf 946d dfbe 5d39 2b3f 3dfb 65be
000000b0: a505 82bc e3f7 17bf dd5b 55bf 546c 503f
000000c0: 0946 f2be 15d8 5c3f bf9a 903e df50 14bf
000000d0: 220a a6be bddf cebe 1bc4 98be c6f7 f4be
000000e0: 27c8 933d 15e9 38bd 0b42 6e3f ff76 d6bd
000000f0: dd60 21bf 93d6 85be 3b29 b83e 2cd4 fabe
00000100: b98b 91bf 52f9 0c3f 8ea5 ac3e c46e aabe
00000110: d412 6bbe db7c 733f 0c18 9d3e 30b5 ae3c
00000120: 54f7 493f 01e6 acbe 9863 70bd ba08 d53d
00000130: c61c 6ebf 1bb4 163f 433f 1cbe 1fdb 0dbd
00000140: ce03 79bd a081 383d 8d2f 90bc c461 d13c
00000150: d546 fa3d a1ee 31be c27c bc3e a16a 693f
00000160: 6592 803e 2598 ac3e c8eb bd3f ba08 863e
00000170: c0ee e03a 49f3 a13d 3ce7 ee3d 6ca9 0cbe
00000180: 47e7 dfbd 9d9b 1e3e 9927 4bbf 2e01 b9ba
00000190: ad59 a33e 8d12 82bf 9794 9ebe 2513 abbd
000001a0: da02 d83e 60f0 c93e dd8e ba3e d662 b7bd
000001b0: 503e c13d 0d37 13bf af35 083f c77b fa3e
000001c0: 1f17 283f 9777 933e 15ab 41bf 123d 6abe
000001d0: afbc d5be 8e9d 4ebe de37 21bf 26f7 0fbf
000001e0: 5f28 97be 7dd6 e3be a553 54bd 298e 8abf
000001f0: 559a 993d 4587 84bf ba2a f1be b130 023f
00000200: 1109 2f3f f05c a5bf bba3 0c3b e96d 89be
00000210: 73c8 173f dce2 2cbe 95f7 0e3f 7967 033e
00000220: 1ba6 fcbd 7d43 9dbf 3ea0 7d3e 9ac4 613e
00000230: c6c1 473e 1b0a bc3f eee2 ed3e c368 363f
00000240: 3b84 823f 5cea b5be a34c 5d3e 4833 383f
00000250: 1378 6abc 983f 2ebe 1327 003f 3ca7 3a3f
00000260: 5936 12bf 9ca8 6b3f 1a83 7fbd 6ea1 283e
00000270: 790e 76bf 4b91 9b3e 27c0 6b3f 6e35 863e
00000280: c6c6 00bf e8f5 483c 3c01 d23d 30be ee3e
00000290: 30cb 453f ac72 c23d ea25 853c a57a eabe
000002a0: c204 08bf 1321 073e 5746 403f 362f 0cbf
000002b0: 8117 cfbe f65c 81bd b7df 373f d83d c2be
000002c0: c023 41be ee0c 893c b844 77be 2a3b 87be
000002d0: 1aec 3f3e abd5 4c3f 3cee efbd bfb0 85bf
000002e0: 8e43 833e b331 54bd 8df0 05be 5334 1bbe
000002f0: 9dc1 fcbc 8638 6d3d 4c11 403d d004 dd3d
00000300: 823b 093e 27cf 543f c093 463e 0cbd b9be
00000310: 4337 50bf 48eb 153f 106b ffbe fc6a d73e
00000320: 0351 a0bd 13ad 543f f900 353e 3c1d a53f
00000330: 3e2e bcbe b99e 17bd d962 7cbc 89a8 393e
00000340: 1219 f5bd 8749 60bf 96dc 32be 03fc 23bd
00000350: c676 28bf e029 933e 318f 913e 00ea b23e
00000360: a0cb 55be 3ae7 ae3b 8449 98bf 3c8c 67bd
00000370: ae47 81bf 1c6d cf3e e619 02bf c35a cb3d
00000380: f61a b3be 1942 9cbd 744f a3bb c56d a8be
00000390: 004a 32be f3d1 423f 5c2f 26be 4aa4 4ebe
000003a0: 8ade 813e 8638 203e a8c1 a5be bbc9 993f
000003b0: 3dab 273e 8e39 fe3e 2913 6a3f 7bda 9cbe
000003c0: af8f fe3e 043e a43e a89d a8be 5f17 a4bd
000003d0: 7bae 37bb 195b c9be 1e34 2ebf dba2 d0bd
000003e0: d36c 01bf a424 5d3f cee5 a9be 6f3c 18bd
000003f0: afe9 5b3e 5450 883d 6818 b53e 6421 953e
-0.13610692 0.53803194 0.010093183 1.0577834 -0.007415179 -0.49141562 -0.21338922 -0.46948773
-0.08660328 0.030106355 -0.9121694 1.3621143 0.114470504 -0.56452596 0.15214834 -0.6192861
0.573876 0.22095999 0.008970657 0.44375408 0.64567083 -0.59703374 0.23688805 0.28749615
-0.20264141 0.40608045 0.70427316 -0.73377407 0.9102526 0.5622499 -0.292852 -0.32531318
0.25500956 0.14409953 0.056702938 0.3604928 -0.38605356 0.41815305 0.53696495 -0.3258407
-0.6617353 -0.4363829 0.66884404 -0.22459121 -0.015871832 -0.5936262 -0.833433 0.81415296
-0.47319058 0.86267215 0.28243062 -0.579359 -0.32429606 -0.40405074 -0.29837117 -0.47845286
0.072159104 -0.04514416 0.93069524 -0.104719155 -0.63038427 -0.2614027 0.35968956 -0.4899
-1.1370765 0.5506793 0.33720058 -0.33287632 -0.22956401 0.9511239 0.3068241 0.021326631
0.7889302 -0.3376923 -0.05868873 0.10402055 -0.93012655 0.5886857 -0.15258507 -0.0346328
-0.060794644 0.045045495 -0.017600799 0.025559314 0.122205414 -0.17376186 0.36813933 0.9117833
0.2511169 0.33709827 1.483758 0.26178533 0.0017160997 0.07907731 0.11665198 -0.13736504
-0.109327845 0.1548905 -0.79357296 -0.0014114731 0.31904355 -1.0161911 -0.3097274 -0.08353261
0.42189676 0.39441204 0.3643712 -0.08954398 0.09435713 -0.57505876 0.53206915 0.4892256
0.6566028 0.28802177 -0.75651675 -0.22874859 -0.41745517 -0.2017729 -0.6297587 -0.56236494
-0.29522988 -0.4449958 -0.051837582 -1.0824634 0.075001396 -1.0353781 -0.4710291 0.5085555
0.6837321 -1.2918987 0.0021459896 -0.26841667 0.59290236 -0.16883415 0.5584653 0.1283244
-0.123363696 -1.2286221 0.24768159 0.22047654 0.19507512 1.4690584 0.46462196 0.71253604
1.0196604 -0.35530365 0.21611266 0.7195325 -0.0143108545 -0.17016447 0.5005962 0.7291143
-0.5711418 0.9205415 -0.062380888 0.1646783 -0.96115834 0.30384287 0.92090076 0.2621264
-0.50303304 0.01226566 0.10254142 0.46629477 0.77263165 0.09494528 0.01625343 -0.45796695
-0.5313226 0.1319621 0.7510733 -0.5475954 -0.4044762 -0.06316559 0.71825737 -0.37937808
-0.18861294 0.016729798 -0.24147308 -0.26412326 0.1874241 0.8001353 -0.117153615 -1.0444564
0.25637478 -0.05180521 -0.13080044 -0.15156679 -0.03085404 0.057915233 0.046891496 0.107919335
0.13401607 0.8312859 0.193923 -0.36277044 -0.8133432 0.58562136 -0.4988637 0.4207381
-0.07827952 0.8307659 0.17676152 1.2899547 -0.3675403 -0.037016604 -0.0154044265 0.18130697
-0.119676724 -0.87612194 -0.1746696 -0.04003526 -0.65806234 0.28742886 0.2842956 0.34944153
-0.20878458 0.005337623 -1.1897435 -0.056530222 -1.01 0.4051293 -0.5082077 0.09929421
-0.34981507 -0.076297946 -0.004983837 -0.32896248 -0.17411041 0.7610161 -0.16229004 -0.20179859
0.25365096 0.15646562 -0.3237431 1.2014688 0.16373916 0.49653286 0.91435486 -0.30635437
0.49718997 0.32078564 -0.32932782 -0.0801227 -0.0028027582 -0.39327314 -0.68048275 -0.10187312
-0.5055668 0.86384034 -0.3318314 -0.03716701 0.21475862 0.066559464 0.35370183 0.29127038

network_body._body_endoder.seq_layers.0.bias f4 [128]
00000000: 7157 9c3c b8db f7bb 5cf9 8d3b 9bce 513d
00000010: 9080 8dbc 9c98 d63c 021b 5b3d 337c 233d
00000020: 025c c3bc 3875 e03c 3b87 aabc a2ff 3abb
00000030: 7e8c bb3d da1f 203d 3e01 783d bdb9 24bc
00000040: 01fa 23bc 0aac 1e3d 5f55 c2bb 0bc3 53bd
00000050: 6d69 0a3d 4410 9b3d 6a2a 8a3d bd6d 443d
00000060: 1e24 8ebc 4cc6 74bd 6685 dfbc 790e 8a3c
00000070: 3ceb 783d 08dc 1ebd caa1 9d3d 85af 863d
00000080: d756 a63d 2b87 aabc a0d1 203d f887 8fbc
00000090: 7919 12bd 8221 523d 4b2d f53c cdf3 763d
000000a0: 7d51 123d ae9e 61bc c2a9 893d 3dcf 10bb
000000b0: f260 b4bd 4405 a03d a15a acbd cda7 ccbc
000000c0: 2e36 463d 4923 f73c fad3 72bc 9878 77bd
000000d0: 772b 1dbc 88b9 c13b 9c19 aa3d 024d dabc
000000e0: 6255 4c3d 34a8 c0bb 0e3d 723c b4ac 9a3d
000000f0: 41bb 88bc 7aea 6abd 8c9e 34bd 5fb5 7e3d
00000100: 42bb 333d 730a 9ebd fe19 40bd 95cd 743d
00000110: 6d1a 23bd 1bef 21bd 458a 203c f02b b13d
00000120: 96b1 663d 99b2 5bbc 772b 7b3c 8cd9 423d
00000130: bbb3 5e3d 5f5b d33c b9f9 fe3c d75e 3d3d
00000140: 6c84 a9bc 392e e0bc 2144 a4bb 690c 123c
00000150: 477c 803d 819f 903b 6cb4 2c3c 946d 273d
00000160: 1202 03bd b0c3 17bd ddce 583d 0c06 07bd
00000170: ad82 923d 2f91 453d f791 493d 2f6b 083d
00000180: 6bd6 7cbd d7ef 843d 7d05 fa3c 3dc3 a1ba
00000190: c9d4 b5bd 4ff6 533d 5a90 9f3c 12d2 283c
000001a0: 8979 4b3d 2d97 2f3d 3dbe d73c 2e39 0dbb
000001b0: fe3b 7c3c b949 693d 8e12 693d 7d84 9a3c
000001c0: 6c45 743d 8b7d 373d bef6 50bc dca3 2fbd
000001d0: 0c9e 4f3d 5873 34bd 5d2d 2fbd b62d bfbc
000001e0: 141e 703d c485 73bd 04ca 113d 69e1 133d
000001f0: 3776 c53d 1d16 913d 7eb6 16bd b482 683d
0.019084664 -0.0075640343 0.0043327045 0.051222425 -0.017273217 0.026195817 0.053492554 0.039913367
-0.023847584 0.027399644 -0.020816436 -0.0028533717 0.09157656 0.039092876 0.06054806 -0.010054049
-0.010008336 0.038738288 -0.005930587 -0.05169968 0.033791948 0.07571462 0.06746371 0.047956217
-0.017351206 -0.059759423 -0.027285289 0.016852604 0.060771212 -0.038784057 0.076968744 0.065764464
0.08122032 -0.020816406 0.039262414 -0.01752089 -0.035668824 0.051301487 0.029928824 0.0602911
0.035722245 -0.013770742 0.06721832 -0.002209618 -0.08807553 0.07813504 -0.084157236 -0.024982357
0.048391514 0.030168192 -0.014821047 -0.06041774 -0.009592882 0.0059120096 0.08305666 -0.026648048
0.049886115 -0.0058794264 0.014785064 0.07552472 -0.016690852 -0.05735252 -0.044096515 0.062184688
0.043879755 -0.07716837 -0.046899788 0.05976637 -0.039820123 -0.03953467 0.009798591 0.086509585
0.056321703 -0.01340928 0.015330187 0.04757075 0.054370623 0.025800405 0.031124936 0.046233024
-0.020693026 -0.02736579 -0.0050130044 0.008914092 0.06273704 0.0044135456 0.010541063 0.040875986
-0.031984396 -0.037051857 0.052931655 -0.03296475 0.07153831 0.04823416 0.04921147 0.033305343
-0.061727922 0.06491058 0.030520195 -0.0012341511 -0.08878476 0.05174857 0.019478012 0.010303991
0.04967645 0.04286878 0.02633583 -0.0021548974 0.015395163 0.056955073 0.05690246 0.018862003
0.05963652 0.04479746 -0.01275414 -0.042880878 0.050687835 -0.044055313 -0.04276787 -0.023337226
0.058622435 -0.05945374 0.035593048 0.03610364 0.09641688 0.07084296 -0.03679513 0.056765273

network_body._body_endoder.seq_layers.2.weight f4 [128, 128]
00000000: 774f bc3d a40d e93d 06bb 16bd 2ade 4e3d
00000010: 4a3b a8bd 9629 a03d a5b0 c73d 4879 10bd
00000020: 2de3 cbbc fac7 39bd 4fab 853d 647a 333d
00000030: fbf0 023c 999f 283e e1ef f9bd 1018 063c
00000040: 27cc 49be 1188 f5bc 8f12 ff3d 4395 0ebe
00000050: e3cd f6bd aa98 a93b 3e98 9e3d 7f89 0abc
00000060: 2ac7 d83d caf7 653d 6615 0f3e ab06 853a
00000070: 2591 0c3e 14a2 093c 171f bcbc 08f3 d7ba
00000080: cb26 0cbd 68ac 53bd 2c88 8b3c 1f79 bcbd
00000090: b3cc 343e 8adb c23b d9aa ae3b f75a bb3c
000000a0: a9cd e93c 087c 8b3d ccc4 19be a8f1 29bd
000000b0: ce58 d43b ab62 27bd f6dc f33d 8c00 6a3c
000000c0: 3df0 64be 0736 cebd 2467 093c 6021 efbc
000000d0: 45f4 ec3c aba6 cbbd 6964 81bd c1da f63d
000000e0: a6f3 383b 8ac7 943d 464f 0d3d 7ce6 94bc
000000f0: 9528 393e c6b6 b63c aff4 603d ab16 b93d
00000100: 6367 a43d ee39 393e 1482 c0bd 6e71 e4bd
00000110: bacc 9dbd 2593 683b c35f 4ebd 70f8 e3bc
00000120: dd15 4abe b993 77bd 3c5c 333c 2ab3 8c3d
00000130: 505c c23d c108 69bd 7a95 f8bb 4b44 2f3e
00000140: 163d 253e 9b73 4bbe 67b0 8a3d b939 c93d
00000150: 443f 973d 9c0e b0bd 089e ac3c 58a9 4c3d
00000160: 5637 ab3d 75dc 033d 3224 6ebd eaff 42bd
00000170: 1f6d abbc 74b0 483e df99 1f3d 34d4 ecbd
00000180: c5c5 e13d 7544 8b3d e094 f2b9 f322 bc3a
00000190: 9dfc ce3d bedd b6bd 3fc2 f23d 2627 5a3e
000001a0: b153 5cbd 59c7 afbd e54b 2abe 4f58 dfbc
000001b0: a0b2 8c3c 7dd6 893d bc67 a43c a9fb 8d3e
000001c0: 1c73 d3bd 72c3 41be 74fb 913d 739b 14bd
000001d0: d77e c23c 70af 443c c6ad dfbc b77f f9bd
000001e0: 08f5 29bd 8f26 31bc 8f93 1a3e 5031 7dbd
000001f0: ec88 ac3d 10f2 11be a5e0 efbd 160f e23d
00000200: c532 5d3d 9a9c 17bd 537e 763c 3dfa a0bb
00000210: e553 c53d 5c55 243e 5a9f acbd 6e86 bc3d
00000220: d237 323e 8247 0dbb dedb 1fbe 041b 6e3c
00000230: a8c2 6cbd 4b4b 89bc 3bb0 373c dac1 3fbd
00000240: fd69 61bd 85c4 ebbb d22e e7bc cd67 01be
00000250: be60 07bd 0365 173c c94f 55bd cc03 9ebd
00000260: 88f3 93bd 196a e43c fb2d 9ebd 4706 75ba
00000270: aa88 65bd a4c5 843d 733d 043e f090 90bd
00000280: 6683 1fbe c69d 05be ba6d 753d 9193 55bc
00000290: 7747 babc da3c 173c cccc bbbd 3755 a6bc
000002a0: 0000 09bd 5bc3 4f3b b851 0f3c 953b b13d
000002b0: 9690 9bbc a55c 183d cbf9 e73d 24a7 71bc
000002c0: 748b 3e3e e7d0 6f3c 4a28 913d f1e9 e13d
000002d0: b205 ac3b 949b e83b 30eb 82bd 0a03 38be
000002e0: d2c0 8f3e 062b 293d 1e5c 93bd e85b 26be
000002f0: 1424 173e 3ffd ddbd fbd9 b2bd fd27 8d3d
00000300: 87ef 7b3d f17a 903c 5ce4 87bc 9e8c d33d
00000310: 18da 59bc 52f9 243e ac3c b2bc 60b9 eabc
00000320: 74e5 81bd db4a 2c3d 8532 6c3d 98ed f0bd
00000330: ae23 5dbd 0912 6bbd 5214 493d 95ae e93d
00000340: daba 303e 86dc 9dbc 7db0 353d fe9e 41be
00000350: 8dc9 6ebd ab90 1dbb c674 05be 0241 033e
00000360: c985 8fbd 4faf ab3c f42e 763b cf68 05be
00000370: 2283 e23d 550d 93bc 313b eebc 2a17 6ebd
00000380: 330b b73c 283c 083d f799 043d 339d 1bbd
00000390: 7e2b 483d 8f5d f73c 7e78 bdbd 9e90 9cbd
000003a0: 5ced 82bd b5d7 83bc 4b35 efbd 59bd b83d
000003b0: 003a 8c3c 2405 34be 1a56 0b3d 378a 483e
000003c0: 91ba 7fbd 5897 08bb e467 7bbd 959c a53d
000003d0: 6b45 873c 2e17 95bb 77d5 fcbd fccb 5c3d
000003e0: 7c27 67bd 3e4d 3e3d 60b4 8bbd 23a4 c1bd
000003f0: 1cb2 773d 6c8f 14be 6857 683c 109f 24be
0.09194844 0.11379555 -0.036799453 0.05050484 -0.082144335 0.07820432 0.09750489 -0.035271913
-0.0248886 -0.045356728 0.06526815 0.043817893 0.0079920245 0.16467132 -0.122039564 0.008184448
-0.19706784 -0.029972108 0.12454712 -0.13924126 -0.120509885 0.0051756697 0.07743882 -0.008455633
0.105848625 0.056144513 0.13973007 0.0010149082 0.13727243 0.008400459 -0.022964044 -0.0016475627
-0.034216683 -0.05167809 0.017032705 -0.092027895 0.17656212 0.0059465813 0.005330425 0.022870524
0.02854045 0.068107665 -0.15016478 -0.041490227 0.006480313 -0.04086558 0.11907379 0.014282357
-0.22357269 -0.10068899 0.008386407 -0.02919072 0.02892507 -0.09943899 -0.0631798 0.12053443
0.0028221398 0.072646216 0.03449943 -0.01817631 0.18081887 0.02230395 0.05492085 0.09037527
0.08027532 0.18088505 -0.093998104 -0.111544475 -0.07705064 0.0035488096 -0.050384294 -0.027828425
-0.19734903 -0.060443614 0.010947283 0.0687011 0.094902635 -0.056893114 -0.0075861784 0.17115895
0.16136584 -0.19868319 0.06771927 0.09825463 0.07385114 -0.085965365 0.021071449 0.049966186
0.08360164 0.032192666 -0.058139987 -0.04760734 -0.020926056 0.19598562 0.038965102 -0.11563912
0.1102405 0.068001665 -0.00046268757 0.0014353677 0.10106776 -0.08929013 0.11853456 0.21303996
-0.05379075 -0.085829444 -0.16630514 -0.027263789 0.017175019 0.067303635 0.020068996 0.27731064
-0.1032469 -0.18922213 0.07128039 -0.03628106 0.023742123 0.012004718 -0.027304541 -0.12182563
-0.041493446 -0.010812416 0.15095352 -0.061814606 0.08424553 -0.14252496 -0.117127694 0.11038034
0.054003496 -0.03701458 0.0150447665 -0.004912643 0.09635142 0.16048187 -0.084288314 0.09205328
0.17404106 -0.0021557515 -0.15611216 0.014532808 -0.057802826 -0.016759535 0.01121145 -0.04681573
-0.05503272 -0.007195058 -0.028220568 -0.12637253 -0.033051245 0.009240392 -0.052078042 -0.07715568
-0.07224184 0.027882623 -0.07723614 -0.00093469437 -0.056038536 0.064830095 0.12914066 -0.07058895
-0.15577468 -0.13048467 0.059919097 -0.013035671 -0.022739155 0.009230817 -0.09169921 -0.020304305
-0.033447266 0.0031702134 0.008747511 0.086539425 -0.018989842 0.037197728 0.11326941 -0.014749322
0.18607885 0.014637209 0.07087763 0.11030949 0.0052497024 0.0070986245 -0.06392515 -0.1796991
0.28076798 0.041300796 -0.07195304 -0.16245997 0.14759856 -0.108393185 -0.08732983 0.06892393
0.061507728 0.017636748 -0.016588382 0.10329555 -0.0132966265 0.16110733 -0.021757446 -0.028652847
-0.06342593 0.042063575 0.057665367 -0.117640674 -0.053989105 -0.057390247 0.049091645 0.11410252
0.17258778 -0.019270193 0.044357765 -0.18908307 -0.058297683 -0.0024042528 -0.13032827 0.12817767
-0.07007939 0.020957617 0.0037564607 -0.13028263 0.11060168 -0.017950693 -0.029080959 -0.05812756
0.022344207 0.033260494 0.032373395 -0.037991714 0.048869602 0.03019598 -0.09251498 -0.07644771
-0.06392929 -0.016094068 -0.11680087 0.0902049 0.0171175 -0.17580086 0.03401766 0.19583975
-0.062433783 -0.002084216 -0.061378375 0.08086506 0.016512593 -0.0045498824 -0.12345403 0.053905472
-0.05643414 0.046460383 -0.06821513 -0.09455135 0.060472593 -0.14507836 0.0141809955 -0.16076303

network_body._body_endoder.seq_layers.2.bias f4 [128]
00000000: 323d 97bc 0a74 98bc a799 473d b080 603d
00000010: 26fe b5bb aee4 5c3d 0a11 563d ab67 e63b
00000020: c4d9 b6ba 42ea 593b 3f98 613c fc92 b2bc
00000030: 628b 613d 193a c5bc 7084 903d 905e 813d
00000040: db16 463d 5cea 743d 89ad 74bc f2ee 193d
00000050: dd1d a73c 9d39 683d 2388 eb3a e40a 173d
00000060: 8168 ecbc 9ee1 e13c f4be 803d ab8b e83c
00000070: d1c1 013d 143b 2dbb 1b57 523d 3e1d 06bd
00000080: f824 b33c 4a41 df3c 0f18 8e3c 55e0 8b3d
00000090: 707f 763d 6e32 f6bc 8a9e 4c3d b23d 053d
000000a0: ee14 a73c 86cf d6bb 47b4 473b b994 9ebc
000000b0: 00f6 5f3d 80a3 dabc 509f 2a3c 968b bbbc
000000c0: 224f d5bc ca08 ccba 5c22 a9bc 542e 95bc
000000d0: bc6d 2cbc 6a5b ac3a c2c9 2c3d 1b15 323d
000000e0: 3a30 17bd cb3b 3abc fcc7 22bd 82a6 9a3c
000000f0: c26f 1abc 88e8 7e3c 497a b3bb ac1d f93c
00000100: 8451 4c3d 9ffb 803d 1fcd a3bc 6dfa 653d
00000110: 19e7 373a 011d 7d3c b636 01bd 1ab5 93bc
00000120: 382a 0d3d 8936 6d3d 2462 3abc 8fd7 623b
00000130: 7484 d0bc 4098 ba3c 6878 a23c c3f8 c53c
00000140: 06a0 34bd a322 bdb9 2ff2 11bd a8f7 a73c
00000150: b391 083d 9169 593d 63af 333d 047c 0abd
00000160: bbda a1bc 6f08 f5bc aad6 833c 5b64 083c
00000170: 2649 8b3b 13f0 82bc 1857 04bc ce45 7a3d
00000180: 5cc6 773d 4880 513d 4f46 ca3b 6b3d c4bc
00000190: 1400 18bd 78ec 043b 9da0 6f3d 8c74 233d
000001a0: c194 8a3d 786a dcbc f676 853c b8a9 c53b
000001b0: a67d f2bc 371e 0f3d 0131 f93c e12b 07bd
000001c0: 28cd 1bbb c72f a4bc 8a7d 89bb b2a8 a33c
000001d0: 2e4f ad3c 38eb 9ebc 3c3b 79ba 0a9a 3abc
000001e0: cc2c 6e3d 6e80 913c c99c af3d 303b c1bb
000001f0: 5a65 1bbd 24d1 303d 4aa4 13bb 43bd 1f3d
-0.018461797 -0.01861002 0.04873052 0.054810226 -0.0055539785 0.053929023 0.052262343 0.007031401
-0.0013950397 0.00332512 0.013769208 -0.021798603 0.055064566 -0.024075555 0.070565104 0.063168645
0.04836164 0.059793815 -0.014933952 0.03758139 0.020399982 0.05669557 0.0017969649 0.03687562
-0.028858425 0.027573403 0.062864214 0.028386911 0.03167898 -0.0026432918 0.0513526 -0.03274273
0.021868214 0.027252812 0.017345456 0.06829897 0.060180128 -0.030053344 0.049955882 0.03252954
0.020395722 -0.0065555004 0.0030472444 -0.019358026 0.054677963 -0.026689291 0.01041396 -0.022893708
-0.02603871 -0.0015566584 -0.020646267 -0.018210568 -0.01052421 0.0013149802 0.0421846 0.04347716
-0.036911227 -0.011366795 -0.0397415 0.018878225 -0.009426059 0.015558369 -0.005477224 0.030409656
0.049882427 0.06297993 -0.01999527 0.056147028 0.0007015332 0.01544881 -0.031546317 -0.018030692
0.03446409 0.057913337 -0.011375938 0.0034613346 -0.025453784 0.022777677 0.019832805 0.02416647
-0.044097923 -0.00036074696 -0.035631355 0.020503834 0.033342075 0.05307919 0.043868434 -0.033809677
-0.01975762 -0.029911248 0.01609357 0.008324708 0.0042506633 -0.015983617 -0.008077405 0.061101727
0.060491905 0.05114773 0.006172932 -0.023955068 -0.03710945 0.0020282548 0.058502782 0.03990607
0.06766654 -0.026906237 0.016292077 0.006032195 -0.02960093 0.034940924 0.030418875 -0.03300083
-0.0023773406 -0.020042313 -0.0041958736 0.019977901 0.02115592 -0.01939927 -0.0009507423 -0.011389265
0.05814819 0.017761435 0.08574826 -0.0058969483 -0.037938453 0.043168202 -0.0022528344 0.038998853

action_model._continuous_distribution.log_sigma f4 [1, 2]
00000000: aff5 aabd c01c 3bbd
-0.08347642 -0.045681715

action_model._continuous_distribution.mu.weight f4 [2, 128]
00000000: c2db 7dbd 5721 7fbd 988d 023d a409 813d
00000010: 291e debd 01cc 3c3d f0f0 da3c 356a f3bc
00000020: b0b9 11bc b6ce d5bd a09e af3c 9a50 70bd
00000030: 094d ff3c ef15 40bd e71c 4c3d 8144 193d
00000040: efbf 2f3d 119e 1f3d 9a95 47bd dd05 8b3c
00000050: b458 253c 9e05 913d da36 25bc d81a 4c3c
00000060: 6c92 7abd 6274 9f3c 7d6f 903d 6a8e a9bd
00000070: 634e bcbc ff09 a7bd 1446 023d 934d 99bd
00000080: c30e 7a3c 2d37 25bd 72d1 e7bd 625f 403d
00000090: 48fd 443d aeb1 64bc 4a29 ef3c 0f67 053c
000000a0: 7889 f03b 7994 b0bd 314f 1d3c 3939 b8bd
000000b0: 223e 9b3d a013 02bd 22ad cbbd 518c a2bc
000000c0: b73b 82bd bd9f afbc 65a8 19bb 2ee8 5bbd
000000d0: 2045 a3bd ccd0 85ba a359 a53c 19f9 003d
000000e0: 46bf 10bd 95f8 6bbc 39ca 79bd f532 733c
000000f0: 27f1 a4bd 80cd 52bc ff33 a0bd d17f e1bc
00000100: 5735 473d 1821 963b f4d3 71bd e29f 013d
00000110: 866f aabd 16f1 52bb 9328 debc 6ed9 95bd
00000120: 3a1a 603c 8574 093d 78e0 b7bd 75b8 bbbd
00000130: 3aaa acbd 3ba4 4dbd 4a05 a9bd 94ed 75bd
00000140: 413c 41bd f24c 87bd db1d dabc ed5e 8e3c
00000150: 8f6a 91bb 7ed7 043d f2df a73c 329b 28bd
00000160: c0d3 ffbc eefb 2abd e687 cbbc 65d6 a0bd
00000170: 8805 8abd d20a 26bc 2fc3 67bd ed2a 4c3d
00000180: 1fe5 313c f03d ab3c fd33 f5bd 92e8 8cbd
00000190: d665 70bd 2db8 83bd 6d9c af3c aa01 da3c
000001a0: 6c5b 073d 307a d1bd 4ce6 75bd 419e 93bd
000001b0: 185e 3dbd eedb 06bc c032 283c 09c4 83bc
000001c0: 9013 8bbd b0e7 9dbd 2a1a a2bd 5323 82bb
000001d0: 7e28 19bc 7bbc a1bc 9b8d d0bd 233a a6bd
000001e0: ec95 2e3d 1feb 0fbd 5285 253d 8c32 38bd
000001f0: 9dfc ddbc 9d9b e93c 71d8 dbbb 7a75 be3c
00000200: 0ae1 bd3c c64d 193c e636 c9bc 82e6 a9bc
00000210: fa47 663a 1f9c a13c c433 00bb 422e 9dbd
00000220: 05da 2ebd 25db b0bd 9246 25bd 70f5 81bc
00000230: a2f2 f03c 037e c03c 8c5c 4ebd 9120 fd3b
00000240: f5bf 03bd 52b7 39ba 74a8 643d a7e7 83bd
00000250: 8077 0bbd 941a 0f3c 63e7 4cbd 838c 88bd
00000260: 5701 3f3c 441e 9e3a c7b4 933c d751 1ebc
00000270: b4b5 a7bd 95e0 98bc e173 b43c ee75 ed3c
00000280: f56f b6bb 4b9b b93d c23c 4cbd c994 32ba
00000290: a4bd c1bb ea9b afbc b969 833c d614 2d3d
000002a0: 84fb 413d 88cb c43b 99fd 09bd abd5 efbc
000002b0: ca7a 583d fa5d 04bd 6168 e3bc d447 4a3c
000002c0: 8e60 40bd bd72 86bc 330f 973b bde8 62bd
000002d0: 6aa3 6dbc 7fab 46bd 9db3 0ebc 3498 113d
000002e0: c3bc b0bc b199 f33c ce3e 33bc ae23 25bd
000002f0: 5359 efbc 7a9b b2bd 5f3f 52bd 40ab abbd
00000300: 3c69 f73c 0def 8c3d fb79 38bd 04a0 973d
00000310: 68dd a8bc afae 6a3d d7fa 82bc 9094 44bd
00000320: 2b2a 103d 1172 7bbd 2b37 3ebb 48c4 653c
00000330: f672 d9bb a0b3 8a3d 9eb1 493c 060a b6bd
00000340: c28c abbc 9019 0f3d ebcf 843c 9aa3 ecbc
00000350: 239b a8bd 7a3c 87bb c058 54bd b688 4c3c
00000360: 8996 00bd ffc6 933c ae8d 9fbd 9cf9 ae3c
00000370: 4ae6 c33c 824d ccbc 4aae 83bd eccd c6ba
00000380: 3098 bfbd 4cb7 153d f88b c33d 03c5 b2bc
00000390: 4801 c2bc 83c4 c23b a765 0a3d 83cd 5fbc
000003a0: b45c fb3a 8b2c 43bb 40b7 b03d fb49 ebba
000003b0: 5302 d83c d283 94bd bd75 6fbd 7dab 41bc
000003c0: 9839 903c c16c ffbb b0db 9cbc 50bf 443d
000003d0: 2d29 873d 6253 19bd 3c42 9e3d 0881 0f3d
000003e0: 77ac 8d3c dfa4 a2bd f305 643d 32df df3c
000003f0: ae6e c8bb a570 193d 1c15 333d 2b4e 853d
-0.061977156 -0.062287655 0.031873316 0.06300667 -0.10845596 0.04609299 0.026726216 -0.02971373
-0.008894369 -0.104398176 0.021437943 -0.058670618 0.031164663 -0.046895918 0.04983225 0.037418846
0.04290765 0.038969103 -0.048726656 0.01697057 0.010091949 0.070811495 -0.010083878 0.012457572
-0.061174795 0.019464675 0.07052515 -0.082791165 -0.022986596 -0.081562035 0.031805113 -0.07485499
0.0152623085 -0.040335823 -0.113192454 0.046965964 0.04809311 -0.013958378 0.029194493 0.008142247
0.0073406063 -0.08622069 0.0096014 -0.08995289 0.0758021 -0.031756997 -0.09945132 -0.019842299
-0.06359046 -0.021438474 -0.0023446318 -0.05368822 -0.07972169 -0.0010209321 0.020184344 0.031487558
-0.035338663 -0.014402528 -0.06098387 0.014843692 -0.08053809 -0.012866378 -0.078224175 -0.027526768
0.048634853 0.004581582 -0.059040025 0.031646617 -0.08322053 -0.0032187155 -0.027118957 -0.07316862
0.013678128 0.033558387 -0.08978361 -0.09166042 -0.08430906 -0.05020545 -0.08252962 -0.060041025
-0.047176603 -0.06606473 -0.026625564 0.017379249 -0.0044377516 0.032432072 0.020492528 -0.04116363
-0.0312289 -0.041744165 -0.024845075 -0.078533925 -0.06739336 -0.010134416 -0.056582626 0.049845625
0.010857849 0.020903558 -0.119728066 -0.06880297 -0.05869087 -0.06431613 0.021436894 0.026612122
0.03304617 -0.102283835 -0.06003408 -0.07207919 -0.046232313 -0.008231146 0.010266006 -0.016084688
-0.067908406 -0.077102065 -0.07915147 -0.003971496 -0.009348033 -0.019743195 -0.10183259 -0.081165574
0.042623445 -0.03513634 0.040410347 -0.04497008 -0.027097994 0.028516585 -0.0067091514 0.023249377
0.023178596 0.009356922 -0.02456231 -0.020739798 0.0008784529 0.019727765 -0.0019562105 -0.076748386
-0.04268839 -0.086355485 -0.040350504 -0.015864104 0.029412571 0.023497587 -0.05038123 0.0077248295
-0.032165486 -0.0007084507 0.055824712 -0.064406686 -0.03404951 0.008734364 -0.050025355 -0.066674255
0.011658034 0.0012063463 0.018030537 -0.009663067 -0.08188954 -0.018661777 0.022027912 0.028986897
-0.0055675455 0.09062823 -0.04986263 -0.0006812332 -0.0059124995 -0.02143665 0.016041623 0.0422562
0.047359005 0.006005708 -0.033689115 -0.02927669 0.052851476 -0.032316186 -0.027759733 0.012346227
-0.04696708 -0.016412133 0.004609966 -0.055397738 -0.014504293 -0.048503395 -0.008709815 0.035545543
-0.021574384 0.029736372 -0.010940267 -0.04031723 -0.029217398 -0.08721061 -0.051329967 -0.08382273
0.030201547 0.06881533 -0.045038205 0.074035674 -0.020613387 0.057295498 -0.01598875 -0.047993243
0.035196465 -0.06138808 -0.0029024582 0.014023848 -0.006636019 0.06772542 0.012310414 -0.088886306
-0.020941142 0.034936488 0.016212424 -0.028886605 -0.08232715 -0.0041270824 -0.05184245 0.012483766
-0.03139356 0.018039225 -0.07790695 0.021359257 0.023913521 -0.024939302 -0.064297274 -0.0015167571
-0.09355199 0.03655176 0.09548181 -0.021822458 -0.023682252 0.005943836 0.03378835 -0.013659838
0.0019177408 -0.0029781188 0.08628702 -0.0017951125 0.026368296 -0.07251705 -0.058461893 -0.011820671
0.017605588 -0.007794947 -0.019147724 0.048034012 0.065996505 -0.037433036 0.07727477 0.035035163
0.017294152 -0.07941603 0.055669736 0.027328108 -0.0061167097 0.03746094 0.043721303 0.0650905

action_model._continuous_distribution.mu.bias f4 [2]
00000000: 162e 5c3d 945a 4e3c
0.05375489 0.012594838

action_model._discrete_distribution.branches.0.weight f4 [1, 128]
00000000: 6348 0fbc faf1 0e3c 3351 fe3b 3377 343c
00000010: 3ac1 ba3b fd88 1c3a d75b 0c3a 6b60 563c
00000020: 759d ac3b 2b23 113c 46da 27bc bbba 44bc
00000030: 8e29 26bc 6029 4f3b 0823 cf3a af83 9b3b
00000040: c003 c1ba 8c6a 8dbc c82f 62bb 18f8 dbbb
00000050: af78 a63b fd29 46bc 5ec9 abbb 0e47 21bc
00000060: 964a 89bc 54d5 8a3b 8d80 e33b 395a a538
00000070: bda5 323b e0f9 d1bb 83a7 803b 88b8 583c
00000080: f421 063c 6b92 02b8 4faa abbc 2ecb a3ba
00000090: 1d83 8b3b 85c0 6c3a ddbe c93b 635e acba
000000a0: 527d 6d3c 7d98 7c3b 227d 753b 0828 a43b
000000b0: 36a5 b1ba 2701 8cbb 6dd4 0fb9 c38a 46bc
000000c0: 8666 a83b 772f 22bb 2855 45bb 9b04 b1bb
000000d0: 9f9a c43b 29d7 9a39 b798 f83a ada9 56ba
000000e0: bad7 9a3c 1d4d f8ba 8f9a 9bba 98dc 323c
000000f0: 4f0a 963b 3c99 203c 5fa1 0ebc 6aa8 f73b
00000100: 0fd0 92ba d9a9 35ba 98fe d2bb ebd9 e93b
00000110: 4339 87bc de7d 84bc 4b35 4aba 9f88 093c
00000120: b852 dbbb 485c 7abb a902 14bc 1965 a6bc
00000130: 45f6 323a 0de2 0a3c 63cb 5bbc 1cfd 05bb
00000140: 23a9 c6bb 4f2b b0bb fc96 1c3b db3b cc3a
00000150: f843 abba e7d4 cfbb f0c2 06bc c2eb 8e3a
00000160: 2f3f e13b 5774 07bc b787 8e39 76c0 80bc
00000170: 3d4d 7d3c 84c1 40bb 8a20 de3b 6f7b f4bb
00000180: f473 90bb ff98 92bc e2f4 8e3b 703d d2bb
00000190: b589 483a dfad dabb 64f6 b93b aa37 4fbb
000001a0: eb72 993b 2f05 29bc cbfe d73b 5242 7fbc
000001b0: 3ca1 0d3a 9807 e13b 9989 a03b 4462 4abc
000001c0: 4788 79bb 6bdc afbb 3f8e b93c ef66 4abc
000001d0: 2a97 4dba 7b3c 033c 0d02 e23b 5bd8 193a
000001e0: acbf a73a a752 3d3c 73e0 d3bc 86d5 b3bb
000001f0: c319 c6bc 7234 923c c0ed 763c cd81 583b
-0.008745286 0.008724684 0.0077611445 0.011014747 0.005699304 0.00059713406 0.00053542614 0.013084511
0.005267794 0.008858482 -0.010244912 -0.012007411 -0.010141743 0.0031610355 0.0015803287 0.0047459225
-0.0014725849 -0.01726272 -0.0034513343 -0.0067129247 0.0050803046 -0.012094972 -0.0052425107 -0.009843601
-0.016759198 0.0042368565 0.0069428147 7.8846184e-05 0.0027259432 -0.0064079612 0.003926219 0.013227589
0.008186806 -3.1130778e-05 -0.020955233 -0.0012496465 0.0042575733 0.0009031373 0.006156786 -0.0013150688
0.014495211 0.0038543039 0.0037458618 0.005009655 -0.0013553265 -0.0042725983 -0.00013716677 -0.012118044
0.005139175 -0.002474753 -0.0030110572 -0.0054021603 0.0059998776 0.00029533476 0.0018966411 -0.0008188736
0.018901695 -0.001894388 -0.0011871624 0.010916851 0.0045788656 0.009802159 -0.008705466 0.0075579183
-0.0011200922 -0.00069299113 -0.0064390413 0.0071365735 -0.016506797 -0.0161733 -0.000771363 0.008394389
-0.0066932105 -0.0038201977 -0.009033837 -0.020311879 0.0006826858 0.008476746 -0.01341519 -0.0020445054
-0.006062643 -0.0053762565 0.0023893705 0.0015581803 -0.0013066521 -0.0063425186 -0.008225188 0.0010904002
0.006873987 -0.008267484 0.00027185466 -0.015716773 0.01546031 -0.002941222 0.0067787813 -0.0074610035
-0.004408354 -0.01789522 0.0043626884 -0.0064160153 0.00076499145 -0.006673559 0.005675124 -0.0031618872
0.0046828887 -0.010316177 0.006591653 -0.015579777 0.0005402749 0.0068673603 0.0048992154 -0.01235253
-0.0038075612 -0.005366852 0.022650836 -0.012353643 -0.00078426546 0.008010025 0.006897217 0.00058687263
0.0012798212 0.01155535 -0.025863862 -0.0054881005 -0.024182206 0.017847273 0.015071332 0.0033036352
